checkpoints/pretrained_model.ckpt (torch, 162348 bytes, 19 tensors)

conv1.lin_l.weight f4 [64, 14]
0	0x3ccae6c0	0.024768233
1	0xbea112d9	-0.31459692
2	0xbd38aaa9	-0.04508463
3	0x3e28fe8f	0.16503356
4	0xbdd24bb8	-0.102683485
5	0xbea41eb0	-0.32054663
6	0xbe5ba035	-0.21447833
7	0xbdd0c7d4	-0.10194364
8	0x3e645c08	0.22300732
9	0xbe0538a8	-0.13009894
10	0xbd8a4ce6	-0.067529485
11	0x3e7f7da0	0.24950266
12	0x3e543e02	0.20726779
13	0x3d444f78	0.04792735
14	0xbdafa5c3	-0.085765384
15	0x3e51359f	0.20430611
16	0xbe3d207f	-0.18469428
17	0x3e6f8cca	0.2339355
18	0x3e39f981	0.18161584
19	0x3e2794ed	0.16365404
20	0x3ed1cf95	0.40978685
21	0xbe89598b	-0.26826128
22	0xbe23e0b7	-0.1600369
23	0xbe77b1fc	-0.2418899
24	0xbe741d18	-0.23839223
25	0xbe7b5f69	-0.24548115
26	0x3db85633	0.09000816
27	0xbe147b70	-0.14500213
28	0x3dcfd799	0.10148544
29	0x3df38a30	0.118915915
30	0xbeb114e2	-0.34586245
31	0x3e6f699b	0.23380129
32	0x3e59af09	0.21258177
33	0xbea440fa	-0.32080823
34	0x3df9663b	0.12177702
35	0x3e376120	0.17908144
36	0xbe0fc56c	-0.14040154
37	0xbe2bd257	-0.16779457
38	0x3dd5b145	0.10434202
39	0x3e5f5151	0.21808363
40	0xbdb1ce6a	-0.086819485
41	0xbe88666f	-0.2664065
42	0x3c9c8428	0.019105986
43	0xbe7fee56	-0.24993262
44	0x3e558b63	0.20853953
45	0x3e8a2f36	0.26989144
46	0xbe138a15	-0.14408143
47	0xbdba2df4	-0.09090796
48	0xbe46b0d6	-0.19403395
49	0xbe6664ef	-0.2249944
50	0xbe34eef0	-0.17669272
51	0x3d1a633f	0.037692305
52	0x3e19b50e	0.15010473
53	0xbe74589e	-0.2386193
54	0xbc2f58aa	-0.0107022915
55	0xbe5ba29a	-0.21448746
56	0x3e869ee6	0.26293105
57	0x3d903b04	0.07042506
58	0x3ce32910	0.027729541
59	0xbd83e8b4	-0.06440869
60	0xbec4c25f	-0.38429543
61	0x3cd0578b	0.025432369
62	0x3e44e080	0.19226265
63	0xbd76c5b0	-0.060247123
64	0xbe3a916b	-0.18219535
65	0xbd9d0ccc	-0.076684564
66	0xbe6a1d26	-0.22862682
67	0xbe703e53	-0.23461275
68	0x3cd428d4	0.025898375
69	0x3e09d890	0.13461518
70	0x3e4bde41	0.19909002
71	0x3e8186a4	0.25298035
72	0xbe2bfb23	-0.1679502
73	0xbca15d0b	-0.019697687
74	0x3e6850c1	0.22687055
75	0x3cb2f769	0.02184649
76	0x3eeb08ba	0.45905095
77	0x3bfa2fef	0.0076351087
78	0xbe063939	-0.13107766
79	0x3da0f3f8	0.07859033
80	0xbe863ecb	-0.26219782
81	0x3e2407a9	0.16018547
82	0x3e607d98	0.2192291
83	0x3d88e4dd	0.06684277
84	0xbe03be9a	-0.12865677
85	0xbe78dd21	-0.24303104
86	0xbd12666d	-0.035742212
87	0x3e709eee	0.23498127
88	0x3e3bddaa	0.18346277
89	0xbe5eb999	-0.21750487
90	0x3e7b5d75	0.2454737
91	0x3e3f75c0	0.18697262
92	0xbd17b942	-0.03704191
93	0xbe817a7e	-0.25288767
94	0xbdf961b6	-0.1217684
95	0xbe35c825	-0.1775213
96	0x3e2afd97	0.166983
97	0x3d7eb690	0.062185824
98	0xbde7979e	-0.113082156
99	0xbe189c41	-0.14903356
100	0xbe292fe3	-0.16522174
101	0xbe63a4d5	-0.22230847
102	0xbe151788	-0.14559758
103	0x3e0caf53	0.13738756
104	0xbe65c229	-0.22437347
105	0xbea3488f	-0.31891295
106	0x3db20385	0.086920775
107	0x3ebb38d5	0.36566797
108	0x3e7c1a49	0.24619402
109	0x3e16fdc2	0.14745238
110	0xbdc95507	-0.09830671
111	0xbdf698d7	-0.12040871
112	0x3c9a01a7	0.018799616
113	0x3e169856	0.14706549
114	0x3e0affe7	0.13574181
115	0xbd1668a7	-0.036720898
116	0xbeabf84f	-0.33587882
117	0x3e9a9e6d	0.30198994
118	0xbca74b6b	-0.020421704
119	0xbe8b02dc	-0.2715062
120	0x3e6b3611	0.22969843
121	0x3e4cb5a6	0.19991168
122	0x3dc0893c	0.094011754
123	0xbe4aebc2	-0.19816497
124	0x3e86474f	0.2622628
125	0x3e1b980c	0.1519472
126	0x3a97effa	0.0011591904
127	0x3c0019af	0.007818623
128	0x3de87fc2	0.11352493
129	0x3e8cb9bd	0.27485457
130	0xbe185d7f	-0.14879416
131	0xbe8d320f	-0.27577254
132	0xbe4cd3ad	-0.20002623
133	0xbe10a2d5	-0.14124615
134	0xbdf25997	-0.11833494
135	0x3e8e75e7	0.27824327
136	0x3dc5e966	0.09663658
137	0xbe3bac62	-0.18327478
138	0xbe653072	-0.22381762
139	0xbd5695b6	-0.05238887
140	0x3d44af1b	0.048018556
141	0x3d38d020	0.04512036
142	0x3e49fde6	0.19725761
143	0xbe1465ac	-0.1449191
144	0x3e0b2f6a	0.13592306
145	0xbd86d7b9	-0.065841146
146	0x3dfdf5b1	0.124003775
147	0x3d7e8537	0.062138762
148	0xbd86a7fd	-0.0657501
149	0x3e491770	0.19637847
150	0x3e5d9791	0.21639849
151	0xbe815ff6	-0.25268525
152	0x3dbbd95a	0.09172316
153	0x3e293e05	0.16527565
154	0x3dd54329	0.104132004
155	0xbe436752	-0.19082382
156	0x3e641cba	0.22276583
157	0x3e7891f5	0.24274428
158	0xbd166cdf	-0.03672492
159	0x3cf1cb35	0.029515842
160	0xbe28d830	-0.16488719
161	0xbea88910	-0.3291707
162	0xbbb6445f	-0.0055623497
163	0xbe58bfe4	-0.2116695
164	0x3df8db61	0.12151218
165	0x3e2125ef	0.15737127
166	0xbe7ab91c	-0.24484676
167	0xbd80d4b0	-0.06290567
168	0xbe3b6ff8	-0.18304431
169	0xbdbcedc5	-0.092250384
170	0x3e34f24f	0.17670558
171	0xbe89000d	-0.2675785
172	0x3d2d0265	0.04223861
173	0x3e460d7b	0.1934108
174	0xbe724143	-0.23657708
175	0x3e9eb0c0	0.30994225
176	0xbe875425	-0.26431385
177	0x3de61fba	0.1123652
178	0xbe013a0e	-0.12619802
179	0xbdb4e658	-0.08832997
180	0x3e4c0b7e	0.19926259
181	0x3e38bd01	0.1804085
182	0x3df77e1f	0.120846026
183	0x3e405cb0	0.18785357
184	0x3dbb9352	0.091589585
185	0x3e146580	0.14491844
186	0x3e1a8aef	0.15092061
187	0xbdd357ee	-0.10319506
188	0xbe7e8cac	-0.2485835
189	0x3de5466c	0.111950725
190	0xbe239c56	-0.15977606
191	0xbe16bb41	-0.14719869
192	0xbca5003d	-0.020141715
193	0x3e2ab57b	0.16670792
194	0xbe7de381	-0.24793817
195	0x3d02f372	0.03197045
196	0x3e40186a	0.18759313
197	0xbd77c1ab	-0.06048743
198	0xbe76fc45	-0.2411967
199	0x3d5bd8f6	0.053673707
200	0x3e827c53	0.25485477
201	0xbe997e6e	-0.2997927
202	0xbd1d0e2e	-0.0383436
203	0x3e00842a	0.12550417
204	0xbe2a12ae	-0.16608688
205	0xbeaea7dc	-0.34112442
206	0x3c1c2a46	0.009531563
207	0xbe5ef3de	-0.21772715
208	0xbe6dcaf6	-0.23221955
209	0xbe392c80	-0.18083382
210	0xbe8aaa27	-0.2708294
211	0x3e8e1848	0.277529
212	0x3e374901	0.17898943
213	0x3db8d2ae	0.09024559
214	0xbe0abf28	-0.13549483
215	0xbe7d6219	-0.24744453
216	0x3e1ad665	0.15120848
217	0xbe42492c	-0.18973225
218	0xbdd68035	-0.10473672
219	0xbe193093	-0.14959936
220	0x3e260361	0.16212226
221	0xbe863d7c	-0.26218784
222	0xbe4a7a3f	-0.19773196
223	0x3c141768	0.009038784
224	0xbe25ac88	-0.16179097
225	0x3dc83f36	0.097776815
226	0x3d764775	0.06012674
227	0xbe2ec5e8	-0.17067683
228	0x3dd07336	0.10178225
229	0xbe26c918	-0.16287649
230	0x3e2616a9	0.16219582
231	0x3e429e6d	0.19005747
232	0x3e55d172	0.20880678
233	0x3d9900b6	0.07470839
234	0x3e3cf877	0.18454157
235	0xbe65b2c4	-0.22431475
236	0x3e2e0a8b	0.1699621
237	0x3e5d86b4	0.21633416
238	0x3e6d3a49	0.23166765
239	0xbe868f79	-0.26281336
240	0x3e3fa8d0	0.1871674
241	0xbd971d7e	-0.07378672
242	0xbd7a8eaa	-0.06117121
243	0x3ca30087	0.019897712
244	0x3ca3e80e	0.020008113
245	0x3e859ff9	0.26098612
246	0xbdff172f	-0.12455594
247	0x3e7eff07	0.24901973
248	0x3e5fa9fb	0.21842186
249	0xbd431d39	-0.04763529
250	0x3df473e7	0.11936169
251	0x3d230536	0.03979989
252	0x3d818fd5	0.06326262
253	0x3e064e2a	0.13115755
254	0x3c28a3f7	0.0102929985
255	0xbe1ae3c5	-0.1512595

conv1.lin_l.bias f4 [64]
0	0x3e666b5d	0.22501893
1	0xbe0e6e92	-0.13909367
2	0x3d26be9a	0.040709116
3	0xbdef73c3	-0.11692002
4	0xbe8323ef	-0.25613353
5	0x3e1e4826	0.1545721
6	0xbe04c82d	-0.12966986
7	0x3e9335aa	0.2875188
8	0x3e6a5b2d	0.22886343
9	0xbdb7867d	-0.089611985
10	0x3e4895ae	0.19588348
11	0x3d09e332	0.033663936
12	0xbe29b7f8	-0.16574085
13	0x3d84936c	0.06473431
14	0x3e2f6c8d	0.17131253
15	0x3e60c9ef	0.21952032
16	0x3da5c679	0.08094496
17	0x3e0ea537	0.13930212
18	0xbce795ea	-0.028269727
19	0xbdf4781e	-0.11936973
20	0x3b1d4f0c	0.0024003414
21	0x3da0909a	0.078400806
22	0xbe28a142	-0.16467765
23	0x3b5e5e73	0.0033930808
24	0x3d7e05bb	0.062017184
25	0xbbaa6a67	-0.0052006724
26	0x3d26ba96	0.040705286
27	0xbe2be450	-0.16786313
28	0x3e0ec9e7	0.13944207
29	0xbe6fe2f3	-0.23426418
30	0xbd8fbd06	-0.07018475
31	0x3e5d3e5e	0.21605822
32	0xbe875bc1	-0.2643719
33	0x3e2b471f	0.1672635
34	0xbdcb04c1	-0.09913016
35	0x3e2d0e11	0.16899897
36	0xbe74dbd0	-0.23911977
37	0x3dc5b65a	0.096539214
38	0x3e714400	0.23561096
39	0x3d8821d1	0.06647075
40	0xbdb9d725	-0.09074239
41	0xbe638e93	-0.22222356
42	0xbda0b3b8	-0.07846779
43	0xbe2fe73a	-0.1717805
44	0x3e2e6524	0.1703077
45	0x3b67ca88	0.003536852
46	0xbe152037	-0.1456307
47	0xbcf4455f	-0.029818235
48	0xbd6d26c8	-0.057898313
49	0xbd84fa44	-0.06493047
50	0x3cc27ce0	0.023741186
51	0x3d89d318	0.06729716
52	0x3e0dd776	0.13851723
53	0xbe0e26ac	-0.1388194
54	0xbe232744	-0.15932947
55	0x3dbf5b1d	0.0934355
56	0x3e83f88d	0.25775567
57	0x3e563757	0.20919548
58	0xbe4e40c2	-0.2014189
59	0x3e2f7177	0.17133127
60	0xbe415ef8	-0.18883884
61	0xbd5c97b7	-0.053855624
62	0x3d91b689	0.07114894
63	0xbdb4d3fc	-0.08829495

conv1.lin_r.weight f4 [64, 14]
0	0xbe7f9153	-0.2495778
1	0x3e8d1aa4	0.27559388
2	0xbe81ccda	-0.25351602
3	0xbe89bf83	-0.26903924
4	0x3decb01a	0.11557026
5	0x3d031d82	0.032010563
6	0x3e643e3d	0.22289367
7	0xbe0030a1	-0.1251855
8	0x3e0c7ea4	0.13720185
9	0xbdc41fb2	-0.09576358
10	0x3dd21471	0.10257805
11	0xbe775304	-0.24152762
12	0xbe6d95cf	-0.23201679
13	0xbe37dfd6	-0.1795648
14	0xbe561c38	-0.20909202
15	0x3e5e714a	0.21722904
16	0xbdaa6474	-0.08319941
17	0xbac487f0	-0.0014994126
18	0x3e84bfc1	0.25927547
19	0x3ea2847b	0.317417
20	0xbe209776	-0.15682778
21	0xbe0a4079	-0.13501157
22	0x3e76d5e7	0.24105035
23	0xbd0e2631	-0.03470439
24	0xbdb834cf	-0.089944474
25	0xbd2026fa	-0.03909967
26	0xbe22381a	-0.15841714
27	0xbe4ab342	-0.19794944
28	0xbd9f266a	-0.07770999
29	0xbe3b2297	-0.18274914
30	0x3d8a49c6	0.067523524
31	0xbb67d15c	-0.003537259
32	0x3e1f6816	0.1556705
33	0xbdecde44	-0.11565831
34	0x3de12cfe	0.1099491
35	0x3e8729ff	0.26399228
36	0x3e6e7cee	0.23289844
37	0xbd75d388	-0.060016185
38	0x3e86d725	0.26336017
39	0x3ecdc60e	0.40190166
40	0xbdecaba3	-0.115561746
41	0x3e027ef0	0.12743735
42	0xbd4dbbf8	-0.05022809
43	0x3ca5742b	0.020196995
44	0xbe0710dc	-0.13190025
45	0xbe823851	-0.2543359
46	0x3c95b42e	0.018274393
47	0x3e101720	0.14071321
48	0xbe7873f3	-0.24262981
49	0x3dd77907	0.10521131
50	0xbe02f046	-0.1278697
51	0x3e422833	0.18960647
52	0xbe5805d0	-0.21095967
53	0x3d80cb38	0.06288761
54	0x3e52d700	0.20589828
55	0xbe5d20b0	-0.215945
56	0x3e308587	0.17238437
57	0xbe8a0313	-0.2695547
58	0xbe89e2fa	-0.26930982
59	0x3d9d3946	0.0767694
60	0xbddb1463	-0.10697248
61	0x3e8828db	0.2659367
62	0x3e34f888	0.17672932
63	0xbec48633	-0.38383636
64	0x3e5e130e	0.21686956
65	0xbd910ed0	-0.070829034
66	0x3e6f5ae4	0.23374516
67	0x3ad7230f	0.0016413647
68	0xbc71c790	-0.014757052
69	0xbe71b93c	-0.23605818
70	0xbd20b10e	-0.039231353
71	0x3e74a3ed	0.23890658
72	0x3eaf80ce	0.34277958
73	0x3d910668	0.070813
74	0x3e84147c	0.25796878
75	0x3d88d64d	0.066815
76	0xbd433a41	-0.047662977
77	0xbadd8653	-0.0016900994
78	0x3e077f3f	0.13232134
79	0x3b4dde25	0.0031412926
80	0xbe0f32f3	-0.1398428
81	0xbe27279e	-0.16323707
82	0xbd3a8941	-0.04554105
83	0xbb685451	-0.0035450647
84	0xbe2c65ff	-0.16835783
85	0xbdbc3aa1	-0.0919087
86	0x3e37a914	0.17935592
87	0x3b932890	0.0044909194
88	0x3e304248	0.17212784
89	0x3d6ab053	0.057297062
90	0x3e4b50a9	0.19854988
91	0xbc8f4039	-0.017486678
92	0xbe92e0dd	-0.28687182
93	0x3eac7870	0.33685637
94	0xbe69be2e	-0.22826454
95	0xbe8620ad	-0.26196805
96	0xbda11c52	-0.0786673
97	0x3dbb93ea	0.09159072
98	0x3dac103e	0.084015355
99	0xbd3e4761	-0.04645479
100	0x3e7295ac	0.23689908
101	0xbe857733	-0.26067504
102	0xbd46e00d	-0.048553515
103	0xbe34c225	-0.17652185
104	0x3e466edd	0.19378228
105	0xbe86ef36	-0.26354378
106	0x3eb09ac9	0.34493092
107	0x3eb259cf	0.34834144
108	0x3e00a4a1	0.12562801
109	0x3eb3055c	0.34965026
110	0x3e1a8dcc	0.15093154
111	0x3e518fd5	0.20465024
112	0xbe3369b5	-0.17520793
113	0xbd64a175	-0.05581804
114	0xbdf5f0b5	-0.12008802
115	0x3dbb95d6	0.09159438
116	0xbce694d6	-0.028147142
117	0xbe865435	-0.2623612
118	0x3da08d34	0.07839432
119	0xbe1cfbc9	-0.15330423
120	0x3e8a3414	0.26992857
121	0xbe204c73	-0.15654163
122	0x3efc3cd1	0.4926515
123	0x3e9bfb22	0.30465037
124	0x3e0ea75c	0.1393103
125	0x3e190eb4	0.14947015
126	0xbe4a8bc9	-0.19779886
127	0xbe46d2da	-0.19416371
128	0xbe41d008	-0.18927014
129	0x3e8e44ab	0.27786765
130	0x3e6b5a28	0.2298361
131	0xbde6a07b	-0.11261078
132	0xbe4b78c8	-0.19870293
133	0x3d4e12af	0.050310787
134	0x3cccbdf7	0.024992926
135	0xbd56a5f2	-0.05240435
136	0xbe684f16	-0.22686419
137	0x3e90f783	0.28313836
138	0x3d8eef34	0.06979218
139	0x3dcaabfa	0.09896083
140	0x3d983428	0.07431823
141	0x3e983497	0.29727623
142	0x3db24d8c	0.08706197
143	0x3e6b5a9b	0.22983782
144	0xbd556c1e	-0.05210506
145	0x3e18eddc	0.14934486
146	0x3e124f55	0.14288075
147	0x3e0dd18c	0.13849467
148	0x3dd5cfbd	0.104400136
149	0x3d8cad4e	0.06868993
150	0xbe62b033	-0.22137527
151	0xbe540ab7	-0.20707212
152	0xbe545b73	-0.2073801
153	0x3e84d8f7	0.2594678
154	0xbd1c1789	-0.038108382
155	0x3e53a563	0.20668559
156	0x3dd1ca38	0.10243648
157	0x3e0c00ee	0.1367223
158	0x3d90bd5d	0.07067368
159	0xbe2cafd8	-0.16863954
160	0xbe1c2dc4	-0.15251833
161	0xbec69ecf	-0.38793036
162	0x3dd755e5	0.1051443
163	0xbe649ed6	-0.22326216
164	0x3e63a6d4	0.22231609
165	0x3edd644a	0.43240577
166	0xbd9c203c	-0.07623336
167	0xbe5528f3	-0.20816402
168	0xbe663802	-0.22482303
169	0x3e0b3253	0.13593416
170	0x3eb9d946	0.3629858
171	0xbe76b8ca	-0.24093929
172	0x3e9ea7bb	0.30987343
173	0x3d6c395e	0.057671897
174	0x3ca93491	0.020654948
175	0x3d02fc22	0.031978734
176	0x3e4bbff8	0.19897449
177	0x3bd2500b	0.0064182333
178	0x3d01e078	0.03170821
179	0xbb59fa02	-0.0033260589
180	0x3e2b2414	0.16712981
181	0xbd2c19bf	-0.04201674
182	0x3cc91b9a	0.024549294
183	0xbeb27b6d	-0.3485979
184	0xbe34221d	-0.17591138
185	0xbb82ddd5	-0.0039937296
186	0xbe38cd80	-0.18047142
187	0xbe1a6c5a	-0.15080395
188	0x3d109280	0.035295963
189	0xbe426ee8	-0.1898762
190	0xbe5c1fd0	-0.2149651
191	0xbe6a2666	-0.2286621
192	0x3ee7700e	0.45202678
193	0x3ea9e255	0.3318049
194	0x3e832a9f	0.25618455
195	0x3cd64aa5	0.02615864
196	0xbe46a012	-0.19397
197	0x3e32ee16	0.17473635
198	0x3cd05c7f	0.02543473
199	0x3db02192	0.08600153
200	0xbe936f9f	-0.28796098
201	0x3e9b884a	0.30377418
202	0xbbfdf980	-0.00775069
203	0xbe24d3b6	-0.16096386
204	0x3d74b2b5	0.05974074
205	0xbe3fdb0e	-0.18735906
206	0x3e90f6de	0.28313345
207	0x3dceaa7a	0.100911096
208	0xbe6d97d7	-0.23202454
209	0x3e65aa6c	0.22428292
210	0xbd408195	-0.04699858
211	0xbd236c3e	-0.03989815
212	0x3c818f8c	0.015815519
213	0x3d8e104d	0.06936703
214	0x3e71dd56	0.23619589
215	0x3dc03100	0.09384346
216	0xbe81c421	-0.25344947
217	0xbdb10fb1	-0.08645571
218	0xbe83d954	-0.25751746
219	0xbe858e12	-0.26084954
220	0x3c96ea62	0.01842231
221	0x3de379ca	0.11107214
222	0xbe60b607	-0.21944438
223	0xbe1cbaeb	-0.15305679
224	0x3e1fef93	0.15618734
225	0x3e336484	0.17518812
226	0x3e3bf086	0.18353471
227	0xbdf2711b	-0.118379794
228	0x3da7ad92	0.08187403
229	0xbe0134bb	-0.12617771
230	0x3d80d12a	0.06289895
231	0x3cf98914	0.030460872
232	0x3c9f0ffe	0.019416805
233	0xbd9143cc	-0.07093009
234	0xbdb09a56	-0.08623187
235	0xbe766013	-0.24060087
236	0xbc888362	-0.01666421
237	0x3e039588	0.1285001
238	0x3e643823	0.2228704
239	0xbe54dba3	-0.2078691
240	0xbcc8811b	-0.024475625
241	0xbe60c281	-0.21949197
242	0x3d94ac98	0.07259482
243	0xbe056d16	-0.13029894
244	0x3dc10fbb	0.094268285
245	0xbd88f6ec	-0.066877216
246	0x3ccc56bc	0.024943702
247	0x3e8e857f	0.27836224
248	0xbe224502	-0.15846637
249	0xbe30d9ad	-0.17270537
250	0xbd970081	-0.07373143
251	0x3e6126cb	0.21987455
252	0x3b6e3546	0.0036347671
253	0x3e2b68df	0.16739224
254	0xbea4a6cb	-0.32158503
255	0xbe793f6f	-0.24340604

conv2.lin_l.weight f4 [64, 64]
0	0xbda705e9	-0.08155424
1	0x3d04afef	0.032394346
2	0xbbee893e	-0.007279544
3	0xbbe6524c	-0.0070288535
4	0x3deceea3	0.11568954
5	0x3def30fa	0.116792634
6	0x3dba850f	0.0910741
7	0x3d951d19	0.072809406
8	0x3a84eeae	0.0010141933
9	0xbbd508c3	-0.0065012886
10	0xbdd78fb7	-0.10525458
11	0xbde17fe5	-0.11010722
12	0x3cc883f3	0.02447698
13	0xbd8f8edc	-0.0700967
14	0xbcf5f22f	-0.030022709
15	0x3debb6a3	0.115094446
16	0xbe2bcffa	-0.16778556
17	0xbdf42ef2	-0.119230166
18	0x3e0d532c	0.13801259
19	0xbe04d346	-0.1297122
20	0xbe21e32b	-0.15809314
21	0xbd5bf646	-0.05370166
22	0xbd847080	-0.0646677
23	0x3d8b0a68	0.06789094
24	0x3e02c407	0.12770091
25	0xbc0feb9e	-0.008784203
26	0x3d490591	0.049077574
27	0xbe087b75	-0.13328345
28	0x3e0599d4	0.13046962
29	0xbd0fc6ed	-0.03510182
30	0x3dd47902	0.10374643
31	0x3ddc067f	0.107434265
32	0xbe4e57fc	-0.20150751
33	0x3df5ca5c	0.120014876
34	0x3de99df0	0.11407077
35	0x3d48fa9e	0.049067132
36	0x3e04d92c	0.1297347
37	0x3e0de43e	0.13856599
38	0xbdd60add	-0.10451291
39	0xbe03f467	-0.12886201
40	0xbda997b3	-0.082808875
41	0x3e288561	0.1645713
42	0x3e42dcbb	0.19029514
43	0xbd814880	-0.063126564
44	0xbd00533d	-0.031329382
45	0xbd6b01f8	-0.057374924
46	0xbe80779a	-0.2509125
47	0xbd344815	-0.044014055
48	0xbdda60c6	-0.10662989
49	0xbd5ce606	-0.053930305
50	0xbd972b4d	-0.07381306
51	0xbd6d7785	-0.05797531
52	0xbd7c3448	-0.061573297
53	0x3d9f8c1e	0.07790397
54	0x3e650f62	0.2236915
55	0xbdf15c99	-0.1178524
56	0xbd89e98c	-0.06733999
57	0x3deaadf2	0.11458959
58	0xbd45be45	-0.04827716
59	0xbd2b4e35	-0.04182263
60	0x3dabcfcd	0.08389244
61	0xbd4e8180	-0.05041647
62	0xbc48a891	-0.012247221
63	0x3b6ad290	0.0035831071
64	0x3e08c47e	0.13356206
65	0x3d5f59dc	0.054529056
66	0xbddeccf8	-0.108789384
67	0xbe1ce031	-0.15319897
68	0xbdc3c144	-0.09558347
69	0x3dc169d4	0.09444013
70	0x3d0399d3	0.03212912
71	0x3db0c69c	0.08631632
72	0x3daf697f	0.08565044
73	0xbce225e5	-0.02760596
74	0x3de8815f	0.113528006
75	0xbd12b79c	-0.035819635
76	0x3dca906f	0.0989083
77	0xbded2a4a	-0.115803316
78	0xbdcc1df2	-0.09966649
79	0xbe189fdf	-0.14904736
80	0xbd70660a	-0.058691062
81	0x3d878bde	0.066184744
82	0x3da9442d	0.082649566
83	0xbe3cf882	-0.18454173
84	0xbd859b91	-0.065238126
85	0xbe077071	-0.13226487
86	0xbd1e4731	-0.038642112
87	0xbcab3052	-0.020897064
88	0xbbc948cb	-0.006142711
89	0x3c6e1722	0.0145318825
90	0xbd61c8a7	-0.055122998
91	0xbd90a54f	-0.0706278
92	0xbbcf4779	-0.006325659
93	0xbd81de25	-0.06341199
94	0xbe04b7cb	-0.12960736
95	0xbdf9e5b3	-0.12202015
96	0xbdd7742b	-0.10520204
97	0x3d993523	0.07480838
98	0xbd83eb40	-0.06441355
99	0x3d66ab79	0.056315873
100	0x3def8828	0.116958916
101	0x3906d862	0.00012859845
102	0x3d7d5579	0.06184909
103	0xbdb7783f	-0.08958482
104	0xbe36d958	-0.17856348
105	0xbd79ebda	-0.06101594
106	0x3d982422	0.07428767
107	0x3e1bb356	0.1520513
108	0xbd6fd28d	-0.058550406
109	0xbc5da5b4	-0.013528276
110	0xbef66020	-0.48120213
111	0x3ca83ce2	0.020536844
112	0x3e0f3507	0.13985072
113	0x3d531862	0.051536925
114	0xbd798d79	-0.060925934
115	0x3a8e8c68	0.0010875585
116	0x3ce6416e	0.028107371
117	0x3d7327b7	0.059364047
118	0xbde96f4d	-0.11398182
119	0xbd3b9a7e	-0.045801632
120	0xbcd1faaf	-0.02563223
121	0xbd189f2a	-0.037261166
122	0x3e62260f	0.2208483
123	0xbe34f56e	-0.17671749
124	0xbd50c2a3	-0.05096687
125	0x3da8db9c	0.08245012
126	0x3c4d65a7	0.012536443
127	0x3e43967b	0.19100372
128	0xbdb7dfa2	-0.089782014
129	0x3ce8b996	0.028408807
130	0x3dd3bc32	0.1033863
131	0xbb633a67	-0.0034672262
132	0x3db4abd1	0.08821834
133	0xbd51b2f9	-0.051196072
134	0x3c0dae77	0.008647553
135	0x3e06573f	0.13119219
136	0xbd0483d3	-0.03235228
137	0x3ca5a4d8	0.020220205
138	0x3d8a2f77	0.067473345
139	0xbd3cc3b2	-0.046085067
140	0x3b5cb6bc	0.0033678254
141	0x3da48c32	0.08034553
142	0x3c904c93	0.017614638
143	0x3c9118e5	0.017712066
144	0x3c06a37b	0.008217688
145	0x3de0c8d6	0.109758064
146	0xbcbcab35	-0.023030857
147	0x3d4e7852	0.050407715
148	0xbd8d1ffe	-0.06890868
149	0xbcc834c5	-0.024439225
150	0xbc4055b1	-0.01173918
151	0xbd9a2b98	-0.07527846
152	0x3d051645	0.03249194
153	0xbddb678b	-0.10713109
154	0x3d65b4c3	0.05608059
155	0xbbb1b4a6	-0.0054231463
156	0x3dd49ef9	0.10381884
157	0x3ce707b7	0.02820192
158	0xbe14db46	-0.14536771
159	0xbdd873a1	-0.105689295
160	0xbdd2d5dd	-0.102946974
161	0xbdc36fff	-0.09542846
162	0x3dcf52a5	0.10123185
163	0xbd4c681f	-0.049903985
164	0x3de84fff	0.11343383
165	0xbdc0a058	-0.09405583
166	0x3dbd54ae	0.09244667
167	0xbaf54c94	-0.0018714839
168	0xbdb967cb	-0.09053
169	0x3e1143e9	0.14186062
170	0xbb0690be	-0.002053305
171	0xbd1cd3c0	-0.038287878
172	0xbc4b2574	-0.012399066
173	0x3ddc866a	0.10767825
174	0xbe043263	-0.12909846
175	0x3dae809b	0.08520623
176	0xbe04f97a	-0.12985793
177	0xbd9e404e	-0.07727109
178	0xbe0ebecd	-0.13939972
179	0x3d78b2f7	0.06071755
180	0x3dc8df26	0.09808187
181	0xbe1dbe45	-0.15404613
182	0xbdd247a0	-0.10267568
183	0xbd61845f	-0.05505788
184	0xbe08065b	-0.13283674
185	0x3da20934	0.079119116
186	0x3ed41e83	0.4142953
187	0x3d9f3efe	0.07775687
188	0xbd255e3e	-0.04037308
189	0x3e51203a	0.2042245
190	0xbe0025ec	-0.12514466
191	0x3dd0b79f	0.10191273
192	0x3da2072a	0.07911523
193	0xbdd887a1	-0.10572744
194	0xbd58b8ba	-0.052910544
195	0x3d9469cd	0.072467424
196	0x3ce0a3a2	0.027421776
197	0xbcee9b3e	-0.02912676
198	0x3d3410bb	0.043961268
199	0x3d984aca	0.0743614
200	0x3d507609	0.050893817
201	0xbdea1ee9	-0.11431677
202	0xbdebe858	-0.115189254
203	0xbd8c681a	-0.06855793
204	0x3db338a8	0.08751041
205	0x3da8e738	0.082472265
206	0xbd48242c	-0.04886262
207	0x3d7b5fc4	0.061370626
208	0xb8c543d1	-9.406324e-05
209	0xbbe975c0	-0.0071246326
210	0x3d063d68	0.032773405
211	0xbd919fc5	-0.07110552
212	0x3c98380a	0.018581409
213	0xbc96b3c3	-0.018396264
214	0x3ddbb282	0.10727407
215	0x3e2c49a1	0.16824962
216	0xbe017a1f	-0.12644242
217	0x3d9f1415	0.07767502
218	0xbdb1eab7	-0.086873464
219	0x3d656906	0.05600836
220	0xbdbfe96b	-0.09370693
221	0x3d2708c6	0.04077985
222	0xbd75f8a5	-0.06005158
223	0xbdcd4ea5	-0.10024766
224	0xbd98ea39	-0.074665494
225	0x3d9d2747	0.07673507
226	0x3dd2fd7f	0.10302257
227	0x3df43772	0.11924638
228	0xbdd2638c	-0.10272893
229	0xbcb4d00f	-0.022071866
230	0x3da2d327	0.0795043
231	0xbc9bf63f	-0.019038318
232	0x3ded0709	0.115736075
233	0x3d0c6863	0.03427924
234	0xbc7d6feb	-0.015468578
235	0x3c695746	0.014241999
236	0x3dc1b6b8	0.09458679
237	0xbe1d3f1c	-0.15356106
238	0x3dda25fb	0.106517754
239	0x3c3da29e	0.0115744155
240	0xba9defc9	-0.0012049611
241	0xbdfb5a2a	-0.12273057
242	0xbe0bd3bb	-0.13654988
243	0xbdba34a1	-0.090920694
244	0xbbf88ac4	-0.0075849015
245	0x3d2f3505	0.042775173
246	0xba4bfc82	-0.0007781462
247	0x3d4991e3	0.049211394
248	0x3e012a1b	0.12613718
249	0xbd00c982	-0.031442173
250	0xbc584135	-0.01319914
251	0x3e384d75	0.17998298
252	0x3db866fe	0.09004019
253	0x3c6c4475	0.014420618
254	0x3b0cc32b	0.0021478634
255	0x3d92c7c5	0.07167009

conv2.lin_l.bias f4 [64]
0	0x3d7be37b	0.06149624
1	0xbc4bfcd2	-0.012450414
2	0xbd002d99	-0.031293485
3	0xbd03857c	-0.032109722
4	0xbd8d5c5d	-0.069023825
5	0xbc836621	-0.01603991
6	0xbdd5bd03	-0.10436442
7	0xbd7def18	-0.061995596
8	0xbc01707b	-0.007900353
9	0x3a10e6ac	0.0005527537
10	0x3d9e4f62	0.07729985
11	0x3de0c34e	0.109747514
12	0xbcd3af9c	-0.025840573
13	0xbe04302d	-0.12909003
14	0xbd5dc5f9	-0.05414388
15	0x3d9ed073	0.07754602
16	0xbd904214	-0.070438534
17	0xbd93c806	-0.07215886
18	0x3c50559c	0.012715723
19	0xbd3cb086	-0.046066783
20	0x3dac59e9	0.084155865
21	0xbe069c4a	-0.13145557
22	0xbc3b775e	-0.011442034
23	0xbdabe08f	-0.083924405
24	0x3db4e356	0.088324234
25	0x3d868c95	0.06569783
26	0x3bbcb8ee	0.00575935
27	0x3cae304b	0.021263262
28	0x3cdac1b8	0.0267037
29	0xbd282e7e	-0.041059963
30	0xbd918838	-0.0710606
31	0x3d9ca2b8	0.07648224
32	0x3d89dde1	0.06731773
33	0x3cf82376	0.030290347
34	0xbda50fbc	-0.08059642
35	0x3da7d8c4	0.08195642
36	0x3d91a29c	0.071110934
37	0x3d0cee71	0.034407083
38	0x3d237b41	0.039912466
39	0xbdab3610	-0.08359921
40	0x3d2c94e4	0.04213418
41	0x3d9ca4f2	0.07648648
42	0x3dba1a55	0.09087054
43	0x3d0b41d9	0.033998344
44	0x3d54a8b9	0.05191872
45	0xbda9a3cb	-0.08283194
46	0x3e00c20f	0.12574027
47	0xbd606a86	-0.05478909
48	0x3d96a1af	0.073550574
49	0xbb6f4b62	-0.0036513438
50	0xbcbe4664	-0.023226924
51	0xbde0174c	-0.109419435
52	0xbc907668	-0.017634585
53	0x3cded77a	0.027202357
54	0x3ddd7178	0.10812658
55	0xbd894185	-0.0670195
56	0x3d82a533	0.063791655
57	0xbde16834	-0.11006203
58	0xbd9c2ee6	-0.07626133
59	0xbd465c26	-0.048427723
60	0xbdd2bfcf	-0.10290491
61	0xbdc2c0b7	-0.09509414
62	0xbdeb1b08	-0.11479765
63	0xbd5ddfe5	-0.0541686

conv2.lin_r.weight f4 [64, 64]
0	0x3d8389b9	0.06422753
1	0x3d5486bb	0.0518863
2	0xbdd18622	-0.10230662
3	0xbe093a9a	-0.13401261
4	0x3daea447	0.08527427
5	0x3e17bc78	0.14817989
6	0x3d0c3735	0.034232337
7	0x3de9e5d0	0.114207864
8	0x3ddf3b3f	0.10899972
9	0x3cf522e0	0.029923856
10	0x3e09ea15	0.13468201
11	0xbcb2ac00	-0.021810532
12	0xbd4c695a	-0.04990516
13	0xbdd324b4	-0.10309735
14	0x3e25ccdf	0.16191433
15	0xbd603dab	-0.05474631
16	0x3e64d1e1	0.22345687
17	0x3db7ab43	0.089682125
18	0xbd1b7b1c	-0.037959203
19	0x3de63dee	0.11242281
20	0x3dd84f31	0.105619796
21	0xbcc37a18	-0.02386193
22	0x3c53e65e	0.012933342
23	0x3df91950	0.12163031
24	0x3d8f3e7d	0.069943406
25	0xbd456ba7	-0.04819837
26	0x3de29cc2	0.110650554
27	0xbe1c8486	-0.15284929
28	0x3e115d6c	0.14195794
29	0xbd806325	-0.0626891
30	0x3b493162	0.00306996
31	0xbd9150df	-0.07095503
32	0x3c31167e	0.010808585
33	0xbbc890fe	-0.0061208
34	0x3e4966e6	0.19668159
35	0x3cec8d07	0.02887584
36	0x3df0250d	0.11725817
37	0x3bcf19d2	0.0063202167
38	0x3d450b6c	0.048106596
39	0xbc42b8a1	-0.011884839
40	0xbd727958	-0.059197754
41	0xbd76a2a0	-0.060213685
42	0x3d8fc0ab	0.070191704
43	0xbe279864	-0.16366726
44	0xbd8af46a	-0.067848995
45	0x3e40580f	0.18783592
46	0x3d79b4fb	0.060963612
47	0x3d65e92b	0.05613057
48	0xbc302a05	-0.010752206
49	0xbd8e42aa	-0.06946309
50	0x3dde132c	0.108435005
51	0x3d372efa	0.044722535
52	0xbde1c692	-0.110242024
53	0x3c1fdbbd	0.0097569795
54	0x3c887528	0.016657427
55	0xbdc0ff3b	-0.09423681
56	0xb8d8b875	-0.000103340404
57	0x3d7ff30e	0.062487654
58	0x3df2e4d9	0.118600555
59	0xbdd0738a	-0.10178287
60	0xbcfb4cc0	-0.030676246
61	0x3e253652	0.16134003
62	0xbdc85cb1	-0.097833045
63	0xbd3e1f79	-0.046416733
64	0x3e049c8a	0.1295034
65	0x3da874f4	0.08225432
66	0xbdd7c786	-0.10536103
67	0x3b812941	0.0039416854
68	0xbd4aceae	-0.04951351
69	0x3dd531be	0.10409878
70	0x3e27bd0a	0.16380706
71	0xbcdf6ca3	-0.027273482
72	0x3de63464	0.112404615
73	0x3c2b0db2	0.010440277
74	0xbe0313cf	-0.12800525
75	0xbddaca4b	-0.106831156
76	0xbe7ca4ac	-0.24672192
77	0x3dd58fdb	0.10427829
78	0x3cb96528	0.022631243
79	0x3c284a2f	0.010271593
80	0x3cb76191	0.02238539
81	0xbded906f	-0.11599814
82	0x3d301191	0.042985503
83	0x3df352c0	0.11881018
84	0xbd896822	-0.06709315
85	0x3ddf8b6b	0.10915264
86	0x3e31b34c	0.17353553
87	0x3d38cd38	0.045117587
88	0xbd00ccbd	-0.031445254
89	0xbd5ad712	-0.053427763
90	0x3d4d09a7	0.050058033
91	0xbc23f805	-0.010007863
92	0xbd8a1afd	-0.06743429
93	0x3da61c9d	0.08110926
94	0x3e2a61a7	0.16638814
95	0xbd85d8ff	-0.06535529
96	0x3de18960	0.1101253
97	0xbd127960	-0.035760283
98	0xbc07bc87	-0.0082846945
99	0xbd1dad72	-0.03849549
100	0x3e4b0595	0.19826348
101	0x3e141bd8	0.14463747
102	0x3d0019b6	0.03127452
103	0xbd442e51	-0.047895733
104	0x3d144200	0.036195755
105	0x3d349c64	0.04409446
106	0x3d9d0c22	0.0766833
107	0x3e290d75	0.1650904
108	0x3da595c3	0.080852054
109	0xbe17b29c	-0.14814228
110	0x3dcd5e18	0.100277126
111	0x3dcc74a2	0.099831834
112	0x3e0c33e2	0.13691667
113	0xbe30bcfe	-0.17259595
114	0x3ce0e3aa	0.027452309
115	0xbdd7af8a	-0.10531528
116	0xbafb09ee	-0.001915274
117	0xbcc0e8ff	-0.023548601
118	0xbd1fffd5	-0.03906234
119	0xbe0d2bff	-0.13786314
120	0x3d928b2f	0.071554534
121	0x3daac11a	0.083376125
122	0xbdb0f1d0	-0.08639872
123	0x3df8e165	0.121523656
124	0x3dae010e	0.08496295
125	0x3e8ac809	0.2710574
126	0x3cf8249a	0.03029089
127	0x3c83bc41	0.016080977
128	0xbdd5bdb9	-0.10436577
129	0x3d731e9b	0.05935536
130	0xbd07058b	-0.03296427
131	0x3d4e3d08	0.050351173
132	0x3c82b88d	0.015957141
133	0x3dcf3018	0.10116595
134	0x3d8234d9	0.06357736
135	0x3d93e21a	0.0722086
136	0x3b050c00	0.0020301342
137	0xbdab3b2f	-0.08360898
138	0x3e09414e	0.13403818
139	0x3da43106	0.08017163
140	0xbc3c1fe1	-0.01148221
141	0xbd9265ea	-0.07148345
142	0x3db7aaff	0.08968162
143	0xba10f635	-0.0005529852
144	0x3ce37e44	0.02777017
145	0x3ddc4107	0.107545905
146	0x3b902343	0.004398735
147	0x3e342c37	0.17594992
148	0xbd83518f	-0.064120404
149	0x3dd35b1b	0.10320111
150	0x3cee69a8	0.029103115
151	0xbcdca905	-0.026936064
152	0x3df3d4db	0.11905833
153	0xbd9ef94f	-0.077623956
154	0x3d7f29f9	0.062295888
155	0x3da46e89	0.080288954
156	0xbdd431a6	-0.10361032
157	0x3bce5077	0.0062962133
158	0x3e4102d3	0.18848734
159	0x3d314dc9	0.043287072
160	0x3c61b3ca	0.013775775
161	0xbd9ad65c	-0.07560417
162	0x3d90c376	0.07068531
163	0x3dced05c	0.10098335
164	0xbde2b584	-0.110697776
165	0x3e094627	0.13405667
166	0xbdb533bf	-0.088477604
167	0xbdad082c	-0.08448824
168	0xbd54205f	-0.051788684
169	0x3dd82266	0.10553436
170	0x3d3ff2ce	0.046862416
171	0x3e3cc1c6	0.18433294
172	0xbbc72170	-0.006076984
173	0x3d9c7a8e	0.07640563
174	0xbcef4848	-0.029209271
175	0xbce1f224	-0.027581282
176	0x3dddd7ab	0.10832151
177	0x3decde48	0.11565834
178	0x3ddebced	0.108758785
179	0x3dcaa9cd	0.09895668
180	0x3e0255b9	0.12728013
181	0xbe1f5743	-0.15560631
182	0x3b40535c	0.002934656
183	0xbdb2c6e8	-0.087293446
184	0x3db08e12	0.08620848
185	0xbdd7bcd5	-0.10534064
186	0xbe10f5bc	-0.1415624
187	0xbd7c65fc	-0.061620697
188	0xbc3185d6	-0.010835132
189	0x3dcb8b45	0.09938673
190	0xbd9e8ed8	-0.07742089
191	0xbcfb57d4	-0.030681528
192	0x3c056124	0.008140836
193	0x3df1da58	0.11809224
194	0xbdd887b4	-0.10572758
195	0x3d5e4819	0.054267976
196	0x3daa9172	0.08328523
197	0xbd991142	-0.07473995
198	0xbde9dcf0	-0.114190936
199	0x3d9f13ff	0.07767486
200	0x3da5c89d	0.080949046
201	0x3d7cf92c	0.061761066
202	0xbdae4412	-0.08509077
203	0x3deef3e8	0.11667615
204	0xbd437a41	-0.047724012
205	0xbd990904	-0.07472423
206	0x3dc41003	0.095733665
207	0xbe530567	-0.2060753
208	0xbdcb4ec9	-0.099271365
209	0xbd46300d	-0.04838567
210	0x3cb50178	0.022095427
211	0xbe440b4f	-0.19144939
212	0xbd78476e	-0.060614996
213	0x3c40b13b	0.011761005
214	0xbe6b8bc8	-0.23002541
215	0x3cd06f28	0.025443628
216	0xbb5f64b9	-0.0034087135
217	0xbcfdb44a	-0.030969758
218	0xbda260c5	-0.079286136
219	0xbc5e2fe4	-0.013561223
220	0xbda00ae4	-0.07814577
221	0xbd39542a	-0.04524628
222	0x3d922d5c	0.07137558
223	0x3d2b521d	0.041826356
224	0x3d2c9d9a	0.042142488
225	0x3d9e80ad	0.07739387
226	0xbceec992	-0.02914885
227	0x3e1b5316	0.15168414
228	0x3cfcb117	0.030846162
229	0xbcd799cf	-0.026318459
230	0xbdb184dd	-0.0866792
231	0xbcf6baa3	-0.030118292
232	0xbde541e0	-0.11194205
233	0x3db4f683	0.08836081
234	0xbe088952	-0.13333634
235	0xbdfada15	-0.12248627
236	0x3d1a0042	0.037597902
237	0x3b4c4ed5	0.0031174917
238	0xbd9b07f1	-0.07569874
239	0xbcb316f7	-0.021861536
240	0xbd3456b3	-0.044027995
241	0xbbdcf950	-0.0067435876
242	0x3d9b84be	0.07593678
243	0x3e331649	0.1748897
244	0xbdee1240	-0.11624575
245	0xbd8c8b3c	-0.06862494
246	0xbe11cedf	-0.14239071
247	0xbe0254c1	-0.12727644
248	0xbdfbf87a	-0.123032525
249	0xbd0881cb	-0.033326905
250	0xbd9dbdd3	-0.07702222
251	0x3c8bac50	0.017049938
252	0xbcb83156	-0.022484463
253	0xbe1caae3	-0.15299563
254	0xbd8b31d6	-0.06796615
255	0x3bb40ad3	0.0054944544

conv3.lin_l.weight f4 [64, 64]
0	0xbd54f7a9	-0.051994
1	0x3e253b0b	0.16135804
2	0x3de2b53e	0.110697255
3	0x3e08bfe6	0.13354453
4	0xbd4d8125	-0.05017199
5	0x3d15345b	0.036426883
6	0x3ca6c0a2	0.020355526
7	0xbd618e8d	-0.055067588
8	0xbe092a25	-0.13394983
9	0xbdc37173	-0.09543123
10	0x3d96353f	0.07334375
11	0xbe0624c6	-0.13099965
12	0x3dd9c8b9	0.10633988
13	0x3d8ce660	0.06879878
14	0xbdea884a	-0.11451776
15	0x3ca2ab9a	0.019857217
16	0xbc9e9c3e	-0.019361611
17	0xbda5df47	-0.080992274
18	0xbe44b480	-0.1920948
19	0xbe0296ef	-0.12752889
20	0x3c6991ea	0.01425598
21	0x3dc56d38	0.096399724
22	0x3d1e78cb	0.038689416
23	0x3de1a065	0.11016921
24	0x3e0bdb0b	0.13657777
25	0xbde09c03	-0.10967257
26	0x3d3e29d1	0.046426598
27	0x3d1dc716	0.03851994
28	0xbd39a8ab	-0.04532687
29	0xbdbf47c1	-0.09339858
30	0xbe28a87d	-0.16470523
31	0x3d3fde6c	0.046842977
32	0xbcbb5212	-0.022866283
33	0x3dfdcab2	0.12392177
34	0x3d2c300e	0.042038016
35	0xbdc6b2d4	-0.097020775
36	0xbc05623e	-0.008141099
37	0x3de52fcc	0.11190757
38	0xbdb02ca8	-0.086022675
39	0xbdf986a8	-0.12183887
40	0xbdd9afa7	-0.10629206
41	0x3e085517	0.13313709
42	0x3e15718c	0.14594096
43	0xbc9ea934	-0.019367792
44	0xbde61e90	-0.11236298
45	0xbd565a97	-0.052332487
46	0xbdfade75	-0.122494616
47	0xbc891b91	-0.016736777
48	0xbdc8df7a	-0.0980825
49	0x3c95e0e7	0.018295718
50	0xbdcc327c	-0.09970567
51	0x3e33b9dc	0.17551368
52	0x3dabc752	0.08387627
53	0xbc933633	-0.01797018
54	0x3dde61fa	0.10858531
55	0xbd521516	-0.05128964
56	0xbe0714b1	-0.13191487
57	0x3b8445a8	0.004036624
58	0x3d84e059	0.064881034
59	0x3d95f7aa	0.07322629
60	0x3defa3f4	0.117011935
61	0x3d28f441	0.041248564
62	0xbe0289f4	-0.12747937
63	0xbd183648	-0.03716114
64	0x3e345855	0.17611821
65	0xbe29b05c	-0.16571182
66	0xbd9f2bfe	-0.07772063
67	0xbddd9b42	-0.10820629
68	0x3da28347	0.079351954
69	0x3bc2b4a0	0.0059419423
70	0x3de40ced	0.11135278
71	0x3e0dee16	0.13860354
72	0x3cb7a600	0.022418022
73	0x3d5d748f	0.054066237
74	0xbe00b7ce	-0.12570116
75	0xbbc48799	-0.00599761
76	0xbb84cf30	-0.004053019
77	0xbe1264e4	-0.14296299
78	0xbd052032	-0.032501407
79	0x3dabd0a0	0.083894014
80	0xbc25f108	-0.010128267
81	0xbdd1945b	-0.10233375
82	0x3cc05308	0.023477092
83	0xbd4d857a	-0.05017612
84	0x3c9f9c4c	0.019483708
85	0x3d629646	0.055319093
86	0xbd990e4a	-0.074734285
87	0xbde19440	-0.110146046
88	0xbe0e594d	-0.13901253
89	0x3de8f424	0.11374691
90	0xbd91f060	-0.07125926
91	0x3c9a9857	0.01887147
92	0xbb3248f0	-0.0027204119
93	0xbc72f642	-0.01482922
94	0x3e0ee00e	0.13952658
95	0xbd6729db	-0.0564364
96	0x3c223143	0.00989944
97	0xbc77faf4	-0.0151355155
98	0x3dfa8855	0.122330345
99	0x3de1357a	0.10996528
100	0xbde4a3ce	-0.11164056
101	0x3da53b77	0.08067983
102	0xbdd148fe	-0.10219
103	0x3dbe5cdc	0.09295055
104	0xbe1b856b	-0.15187614
105	0x3db13dce	0.086543664
106	0xbd6f2bef	-0.058391508
107	0xbdf997f1	-0.12187184
108	0x3dccdb1b	0.100027286
109	0x3d399ea0	0.045317292
110	0xbc090ec0	-0.008365333
111	0xbe0991aa	-0.13434473
112	0xbc7eda9b	-0.015555049
113	0x3d2b4c6b	0.041820925
114	0xbbd1b760	-0.006400034
115	0x3dab6e7b	0.08370682
116	0x3e00e786	0.12588319
117	0x3d894d3e	0.06704186
118	0xbdb632b5	-0.0889639
119	0x3b950cae	0.0045486307
120	0x3dc7df8d	0.09759436
121	0x3e067ebe	0.13134286
122	0xbd923653	-0.07139268
123	0x3d967200	0.073459625
124	0x3dc51931	0.096239455
125	0xbd4e09a7	-0.050302174
126	0xbd42fe24	-0.04760565
127	0x3d4b74e8	0.049672037
128	0x3d1c7d70	0.038205564
129	0x3c7d1920	0.015447885
130	0xbccb745d	-0.02483576
131	0x3e029efa	0.12755957
132	0x3d8edc5a	0.069756225
133	0xbd27f1cf	-0.04100209
134	0x3c7216b1	0.014775918
135	0xbd87d9c4	-0.06633332
136	0x3de8b8e2	0.113633886
137	0xbd62ed81	-0.055402283
138	0xbd9a7c4f	-0.07543241
139	0x3d06490f	0.032784518
140	0xbc3d69dc	-0.011560883
141	0x3da2f62d	0.079571106
142	0x3d8e50a0	0.06948972
143	0x3c4d882f	0.012544676
144	0x3d826d38	0.06368488
145	0xbe1956a2	-0.14974454
146	0x3e6e94d1	0.23298956
147	0x3d1cc21b	0.03827105
148	0x3de70b45	0.11281446
149	0x3ce797fb	0.028270712
150	0xbd87e18a	-0.06634815
151	0x3bc8ba66	0.006125736
152	0xbe3aaf57	-0.1823095
153	0x3dc8de1e	0.098079905
154	0x3d8d8450	0.06910002
155	0xbc60c9ce	-0.013719989
156	0x3c047226	0.008083856
157	0xbcd9b7aa	-0.026576836
158	0x3da35e78	0.07977003
159	0x3cddbb9c	0.027066998
160	0xbd493d51	-0.04913074
161	0xbdfbfe54	-0.123043686
162	0xbde5ce93	-0.112210415
163	0x3cadf120	0.021233141
164	0x3d11dbcc	0.035610005
165	0xbd9849f3	-0.0743598
166	0xbd6a29fe	-0.057168953
167	0xbd64b1fc	-0.0558338
168	0xbdafebe7	-0.08589917
169	0xbe0d11ea	-0.13776365
170	0x3dba2cfc	0.09090611
171	0x3dcca59d	0.09992526
172	0xbd2907a8	-0.041267067
173	0x3debca21	0.115131624
174	0x3d2d5360	0.04231584
175	0xbc515010	-0.012775436
176	0xbd91f0ad	-0.071259834
177	0x3d8fea84	0.07027152
178	0xbdd4c61e	-0.1038935
179	0x3db1e87c	0.08686921
180	0x3df3a5b7	0.11896842
181	0xbb8b020e	-0.0042421883
182	0x3da1aec0	0.07894659
183	0x3dafdd28	0.08587104
184	0xbdc82683	-0.097729705
185	0x3bb3704f	0.0054760347
186	0xbd059d50	-0.032620728
187	0x3daaf6ff	0.08347892
188	0x3da520ca	0.08062895
189	0x3c80ba61	0.015713872
190	0x3dd21d7d	0.10259531
191	0xbd4ecb5c	-0.050486907
192	0xbce80668	-0.028323367
193	0x3de241b9	0.11047692
194	0xbc722a76	-0.014780631
195	0x3d840935	0.064470686
196	0x3d9d5de3	0.07683923
197	0x3a085a45	0.00052014395
198	0xbc6d4c70	-0.014483556
199	0xbdeeab0c	-0.11653718
200	0x3dd111e1	0.10208488
201	0xbd4d263c	-0.05008529
202	0xbd9a2c80	-0.07528019
203	0xbcb93487	-0.022608055
204	0xbdeda2f8	-0.116033494
205	0xbd9b39e9	-0.07579405
206	0xbd80f2ae	-0.062962875
207	0x3dbf7483	0.09348395
208	0xbcd0a5ea	-0.025469739
209	0xbccc8d1b	-0.024969628
210	0x3d939256	0.07205646
211	0xbde63356	-0.1124026
212	0x3d60a386	0.054843448
213	0x3dbac182	0.0911894
214	0xbd1947d5	-0.03742202
215	0xbdada831	-0.084793456
216	0xbd6231f1	-0.05522341
217	0xbd942640	-0.07233858
218	0xbe36c5a7	-0.17848836
219	0xbce972e8	-0.028497174
220	0xbd70061a	-0.05859957
221	0xbca462ec	-0.0200667
222	0xbd23eee5	-0.04002275
223	0x3d50e0f7	0.050995793
224	0xbd34d59e	-0.044149034
225	0x3c10fff2	0.008850085
226	0xbda6bea1	-0.08141828
227	0xbbd12cc8	-0.006383512
228	0x3d5010d5	0.050797302
229	0xbd375c3b	-0.044765692
230	0xbb8b9a11	-0.0042603095
231	0x3d9e7398	0.077368915
232	0xbd11372d	-0.03545301
233	0x3c84acf0	0.016195744
234	0x3d788b2c	0.0606796
235	0x3be115f9	0.0068690744
236	0x3e0851d1	0.1331246
237	0xbd438698	-0.04773578
238	0xbd55d45c	-0.052204475
239	0xbced8692	-0.028994832
240	0xbdd5a053	-0.1043097
241	0xbcaca20c	-0.021073364
242	0x3df0d4a4	0.11759308
243	0x3d050fd3	0.032485794
244	0xbd4f1386	-0.05055573
245	0xbb896204	-0.0041925926
246	0xbd58b5ac	-0.05290763
247	0x3a0bdba9	0.0005335161
248	0x3cce1e0e	0.025160816
249	0xbd1eceef	-0.038771566
250	0x3d2ef55a	0.042714454
251	0x3d816e0c	0.06319818
252	0x3c9ab6a6	0.018885922
253	0xbdb31a4d	-0.08745251
254	0xbdb94d7a	-0.090479806
255	0x3dd9f1da	0.10641833

conv3.lin_l.bias f4 [64]
0	0x3ddee5b9	0.1088366
1	0x3cabe532	0.020983312
2	0xbd682ea2	-0.056685098
3	0x3d3d347e	0.04619264
4	0x3cda941c	0.026681952
5	0xbda45f5e	-0.08026002
6	0x3c1f6caa	0.009730497
7	0xbd8bb304	-0.06821254
8	0x3d8c5215	0.068515934
9	0xbdea1639	-0.1143002
10	0xbde4e3ca	-0.1117626
11	0x3dfdbddc	0.123897284
12	0xbdae22bd	-0.085027196
13	0x3e1177ca	0.14205852
14	0x3da83bda	0.08214541
15	0x3da10078	0.078614175
16	0x3da1d461	0.07901836
17	0x3d58a577	0.052892175
18	0x3d997dbf	0.07494687
19	0xbdf983ec	-0.12183365
20	0xbd611e33	-0.05496044
21	0xbd3efd42	-0.046628244
22	0xbd381f0b	-0.04495148
23	0x3db8075e	0.0898578
24	0x3dec10ce	0.11526643
25	0xbdfbfc54	-0.12303987
26	0x3d35878c	0.04431872
27	0x3d9ce81a	0.07661457
28	0xbe069b70	-0.13145232
29	0x3d85696a	0.06514247
30	0x3da57382	0.08078672
31	0x3df22aaa	0.11824544
32	0x3db50b9c	0.08840105
33	0x3da2f966	0.07957725
34	0xba72f92a	-0.0009268696
35	0xbd89c930	-0.067278266
36	0xbe00bf7c	-0.12573045
37	0xbd190597	-0.037358847
38	0x3dc58df7	0.09646218
39	0xbddbe825	-0.107376374
40	0x3d521ffd	0.051300038
41	0xbd15cd1c	-0.03657256
42	0x3d43806f	0.047729906
43	0xbdaaf5ce	-0.08347665
44	0xbdbaf56b	-0.09128841
45	0x3d049e42	0.03237749
46	0xbe142526	-0.14467296
47	0xbdd338b5	-0.103135504
48	0xbd84b192	-0.06479181
49	0xbe264f97	-0.16241299
50	0xbdee7db0	-0.11645067
51	0xbce206cf	-0.027591137
52	0xbe0431bb	-0.12909596
53	0xbcabc321	-0.020967068
54	0xbdfbd7d2	-0.12297024
55	0xbcb25e8d	-0.021773601
56	0x3d3f7a69	0.0467476
57	0x3dd7e253	0.10541215
58	0xbd9422e3	-0.072332166
59	0xbdcec4c9	-0.100961275
60	0xbd7dd43b	-0.061969977
61	0x3dd05417	0.10172289
62	0x3c7ac788	0.015306361
63	0x3d1f8363	0.03894366

conv3.lin_r.weight f4 [64, 64]
0	0x3ddf8487	0.109139495
1	0xbaf319d3	-0.0018547125
2	0xbd20eed8	-0.03929028
3	0x3cca598d	0.024700904
4	0x3d85bd7a	0.065302804
5	0x3da48ddf	0.08034872
6	0x3d6bfa05	0.057611484
7	0xbd6809e3	-0.056650054
8	0xbe2295ef	-0.15877508
9	0x3db50ba0	0.08840108
10	0xbdae67db	-0.085159026
11	0xbdca7a55	-0.09886614
12	0x3c1c4d07	0.009539849
13	0x3e17ac6b	0.14811866
14	0xbca0a1a7	-0.019608332
15	0x3c1d4088	0.009597905
16	0xbdd4f0af	-0.10397469
17	0xbd9820a4	-0.07428101
18	0xbddd049f	-0.10791897
19	0xbd54918a	-0.05189661
20	0x3c352506	0.01105619
21	0xbe3c40c4	-0.18384081
22	0x3c3c0061	0.0114747
23	0xbd218173	-0.039430093
24	0x3e67bd80	0.22630882
25	0xbcfcb00a	-0.03084566
26	0x3e115908	0.14194119
27	0x3c3ed550	0.011647537
28	0x3dc19789	0.09452731
29	0xbd8c8677	-0.06861585
30	0xbe4dee47	-0.20110427
31	0x3d8a370d	0.06748781
32	0x3c0bea79	0.008539789
33	0x3d822873	0.06355371
34	0x39e245e3	0.0004315815
35	0xbca41c10	-0.020032912
36	0x3d318117	0.043336
37	0xbde42410	-0.11139691
38	0x3bd5cd64	0.0065247286
39	0x3dc2afc6	0.095061824
40	0xbbc3d16e	-0.0059758937
41	0x3c358f21	0.011081488
42	0x3dd847b1	0.10560549
43	0xbd4e3049	-0.050339017
44	0x3df5ac86	0.11995797
45	0xbc27a6f8	-0.01023268
46	0xbda8ff3b	-0.08251806
47	0xbcafda9e	-0.02146655
48	0x3d1c45f7	0.03815266
49	0x3dba9591	0.09110559
50	0x3cfa1352	0.03052679
51	0xbad28904	-0.0016062562
52	0xbd848ada	-0.06471796
53	0xbdc61c7d	-0.096734025
54	0xbdfb2ba6	-0.12264185
55	0x3dcae62c	0.09907183
56	0x3d51bf53	0.05120785
57	0xbe5afb26	-0.21384868
58	0xbdb05f7c	-0.08611962
59	0xbcd277eb	-0.025691947
60	0xbe007587	-0.12544833
61	0xbd217eda	-0.039427616
62	0x3d01bd95	0.03167494
63	0x3cb1526f	0.021645753
64	0x3de247f9	0.11048884
65	0xbdf4b7e1	-0.119491346
66	0x3d42124c	0.04738073
67	0xbd5bbab7	-0.053644862
68	0xbdf08e28	-0.11745864
69	0xbc999d8e	-0.018751886
70	0xbd0e599e	-0.034753434
71	0x3e7092cb	0.23493497
72	0xbde88a3c	-0.11354491
73	0xbcf24329	-0.02957304
74	0xbb0e4011	-0.0021705667
75	0x3d9fd1b1	0.07803667
76	0xbcfb8adb	-0.03070586
77	0xbe0c3930	-0.1369369
78	0xbdc80f67	-0.09768563
79	0x3dca3556	0.09873454
80	0x3e13d76c	0.14437646
81	0xbc38e5c4	-0.011285249
82	0x3d955f46	0.072935626
83	0x3e2c02af	0.16797899
84	0x3d812740	0.063063145
85	0x3c19c996	0.009386441
86	0xbd2c9307	-0.042132404
87	0x3d959f8c	0.07305822
88	0x3ddebf22	0.108762994
89	0x3c071517	0.008244774
90	0xbcb6f5f2	-0.022334073
91	0xbcfdc71c	-0.030978732
92	0xbe074796	-0.13210902
93	0xbdf04c9d	-0.11733363
94	0x3d87bb40	0.06627512
95	0x3c0e4822	0.00868419
96	0x3e3744e7	0.17897378
97	0xbe1175bb	-0.14205067
98	0x3c7894b3	0.015172171
99	0xbd71d612	-0.059042044
100	0xbc8b10fd	-0.016975874
101	0x3c7b67da	0.015344584
102	0xbde0f42a	-0.109840706
103	0xbddf3e0c	-0.109005064
104	0xbd946db4	-0.07247487
105	0xbe1d584b	-0.15365712
106	0xbc810563	-0.015749639
107	0xbda11544	-0.07865384
108	0xbd7df978	-0.06200549
109	0x3de90ce5	0.113794126
110	0x3d33cbd6	0.043895565
111	0x3c7ce7e5	0.015436147
112	0xbc999be0	-0.018751085
113	0x3dcdca2d	0.100483276
114	0x3d90379b	0.07041856
115	0x3d618670	0.05505985
116	0x3dcf9492	0.101357594
117	0xbbf55815	-0.007487307
118	0xbc1f1e16	-0.009711763
119	0x3dd1ea0c	0.10249719
120	0x3dfbddef	0.1229819
121	0x3d2864ca	0.041111745
122	0x3d302837	0.043007102
123	0xbddd74f4	-0.10813323
124	0x3de3bac5	0.11119608
125	0xbd9f1d01	-0.07769204
126	0xbde4cf84	-0.11172393
127	0xbd2c3e30	-0.042051494
128	0xbc3293ee	-0.010899527
129	0x3bf8890c	0.0075846966
130	0x3d484e59	0.048902843
131	0x3d0662af	0.032808956
132	0x3dcbd8e7	0.0995348
133	0xbe0ef46a	-0.13960424
134	0x3d2230c3	0.039597284
135	0x3d4fbdcd	0.050718118
136	0x3de058c1	0.109544285
137	0x3c358efd	0.011081454
138	0x3e0708f2	0.13187006
139	0x3d5cce2b	0.053907555
140	0xbb3c95bc	-0.0028775772
141	0x3ca31e55	0.019911924
142	0x3dcc25f6	0.09968178
143	0x3d858bf5	0.06520835
144	0x3c7d3f38	0.015456967
145	0xbbd622b1	-0.0065348973
146	0x3e5cde46	0.21569166
147	0xbccc4416	-0.02493481
148	0xbb4b45ce	-0.0031016949
149	0x3e0b9bac	0.13633603
150	0x3d13fb52	0.03612835
151	0xbdde6f0d	-0.10861025
152	0xbe2752e8	-0.1634022
153	0xbd6a3aee	-0.057185106
154	0xbe1f5e46	-0.15563306
155	0xbdf59866	-0.11991958
156	0x3ca6f20c	0.020379089
157	0x3c403bb4	0.011732984
158	0x3c6ca777	0.014444224
159	0x3e43e1bc	0.1912908
160	0x3da1dee9	0.07903845
161	0x3d45bc44	0.048275247
162	0xbc086d50	-0.008326843
163	0x3c8faecc	0.017539404
164	0x3e04c465	0.12965544
165	0xbd77388a	-0.060356654
166	0xbced6d3b	-0.02898275
167	0x3dbbf5e3	0.091777585
168	0x3d9435c4	0.072368175
169	0xbd7ba393	-0.061435293
170	0xbcecfaaa	-0.02892812
171	0xbda8422f	-0.082157485
172	0x3d8cc037	0.068725996
173	0x3d2410cb	0.040055078
174	0x3c8e0d2a	0.017340261
175	0xbceed0ff	-0.029152391
176	0x3d7573d0	0.0599249
177	0xbd886b21	-0.06661058
178	0xbdb403e8	-0.087898076
179	0xbdbf5dee	-0.093440875
180	0x3d6bc39b	0.05755959
181	0xbce8c539	-0.028414356
182	0x3d03f528	0.03221622
183	0x3d504a8f	0.050852355
184	0xbd713887	-0.0588918
185	0xbddcb9f7	-0.107776575
186	0xbdc31866	-0.09526138
187	0x3d6fddac	0.058561012
188	0x3d18228d	0.037142325
189	0x3d040a02	0.032236107
190	0x3e546111	0.20740153
191	0xbdb414da	-0.087930396
192	0x3ce638b7	0.028103216
193	0x3dc9ec72	0.098595515
194	0xbdfeeaf7	-0.1244716
195	0x3d469cc0	0.048489332
196	0x3d5776ba	0.05260346
197	0x3db04e7d	0.086087205
198	0xbd98b44b	-0.07456263
199	0x3bb8eba2	0.005643324
200	0x3ddbd30b	0.107336126
201	0x3dbace83	0.0912142
202	0xbd48feb0	-0.049071014
203	0xbd2b2ec9	-0.041792665
204	0xbd8b2cc8	-0.06795651
205	0xbd85c785	-0.06532196
206	0x3e07454b	0.13210027
207	0xbe0510d3	-0.12994699
208	0x3d8be9fd	0.06831739
209	0xbe433a6e	-0.19065258
210	0x3da23f4d	0.0792223
211	0x3da3e08f	0.080018155
212	0xbbe60573	-0.0070196926
213	0xbd2b0367	-0.04175129
214	0xbcf002e6	-0.029298257
215	0xbcc27ca6	-0.023741078
216	0x3e3f4300	0.18677902
217	0x3df5751f	0.1198523
218	0xbe1a60d6	-0.15076002
219	0xbc183394	-0.009289641
220	0x3abf1ea7	0.0014581279
221	0x3cb9fa88	0.02270247
222	0x3da68c9c	0.08132288
223	0x3d93a8fb	0.07209965
224	0x3db9c883	0.09071448
225	0x3dc50a7b	0.096211396
226	0xbe1dc59c	-0.15407413
227	0xbdf0e535	-0.11762468
228	0x3c27c76b	0.010240416
229	0x3d6b3705	0.057425518
230	0xbd7a52d3	-0.061114144
231	0xbdbec240	-0.09314394
232	0x3e1c1d62	0.15245584
233	0x3c8fc58e	0.017550256
234	0xbd0b7759	-0.034049366
235	0xbbbb732a	-0.0057205157
236	0xbd315587	-0.043294456
237	0xbc3ff579	-0.01171624
238	0x3e2bb059	0.1676649
239	0xbe38f006	-0.18060312
240	0xbd0be93e	-0.034157984
241	0x3e1b47bf	0.15164088
242	0x3db79f2b	0.08965906
243	0x3c85513c	0.016274087
244	0xbde016d5	-0.10941855
245	0x3ba12110	0.0049172714
246	0xbde4ae1c	-0.11166021
247	0x3dd24d58	0.102686584
248	0x3e06a9b3	0.13150673
249	0xbe50fe5e	-0.20409533
250	0xbde8fd9b	-0.113764964
251	0xbb629074	-0.0034570964
252	0xbdc15b08	-0.09441191
253	0x3cdb108f	0.026741294
254	0xbe25262b	-0.16127841
255	0xbce7e28b	-0.028306266
